dqn/models/CartPole-v1_best.pt (torch, 9759 bytes, 4 tensors)

weight f4 [256, 4]
0.1815204 -0.22811687 -0.32685637 -0.1112715 0.06207472 0.15441012 -0.49605483 0.16660666
-0.007266462 -0.07512289 -0.18178785 0.19441915 -0.38369763 -0.2849546 -0.0959214 -0.23033082
0.40485483 -0.35007823 0.05727148 -0.37895173 0.10802144 0.2048499 0.3226956 0.22552568
-0.088252306 0.46196866 -0.4532963 -0.08845389 -0.3411438 -0.025062084 -0.3891366 0.09094137
0.23295099 0.2678702 -0.26351446 -0.25004822 -0.39128077 -0.4966972 -0.066073954 -0.2130391
0.2080419 0.48618674 0.4626897 -0.047956347 -0.16805446 -0.17484152 0.4699555 -0.23263645
0.09517163 -0.39074892 -0.35886878 -0.22388351 0.27537733 0.13874805 0.27552927 -0.47516924
-0.04907769 -0.39545012 -0.45628232 0.24330199 0.26195323 0.28321177 0.3488903 0.10859847
-0.28504485 0.226412 0.08171791 -0.47327834 0.47743547 0.20626742 -0.36788273 0.2398259
0.4637559 -0.43063933 0.21855062 -0.02756995 0.4953785 0.18493247 0.1275683 0.35083038
-0.4367802 -0.16315562 -0.16990942 0.011575818 0.04830849 0.42344487 0.47109646 -0.48570347
-0.47989267 -0.10669005 -0.3627243 -0.20071268 -0.36957455 -0.15612948 0.27601278 -0.48211443
0.06533551 -0.24005038 -0.26317412 -0.2421282 -0.35190833 -0.03035283 -0.3842154 0.088689804
-0.2544908 0.31158924 -0.271232 0.27613235 0.15431821 0.16177493 -0.05733615 0.03535372
0.45406443 0.44646567 -0.09824687 -0.09811455 -0.29116917 -0.4479552 0.17075485 0.05676806
0.10032654 0.08514899 0.40125614 -0.13422787 0.35097164 -0.34026712 0.32154268 -0.24387008
0.3875451 -0.12662584 -0.22572827 -0.16063058 0.048334777 -0.06627613 -0.14739281 0.18374825
0.35694999 -0.13897514 -0.31968898 0.003845036 -0.24263757 0.44293618 0.27495843 -0.38349366
0.15442806 -0.4605887 -0.41758627 -0.49186027 0.46080256 0.44890428 0.13010907 -0.28601533
0.21031135 0.39302576 0.22036499 0.37256503 -0.4561944 0.46467966 0.4122619 -0.0036190748
0.08144593 0.09049791 -0.06446844 -0.2546904 0.12981045 -0.34254473 -0.23306859 0.23707193
0.24575603 0.45580143 0.39795846 0.4825995 0.3335613 0.35966617 -0.31181502 -0.499887
-0.4204042 -0.34185612 0.25813252 -0.09011465 0.00018465519 -0.13512713 -0.49901664 0.02044326
-0.09958458 0.18352097 -0.48595524 -0.22159386 0.3761307 0.0034207106 0.036937 0.4258095
-0.10140002 -0.263767 -0.4440508 -0.22528362 0.23823613 -0.37344617 -0.4049819 -0.33758205
0.31191373 -0.47858894 -0.15134174 -0.3244875 -0.11300188 0.23096353 -0.16448128 0.09223682
-0.17309183 -0.027049124 0.14955634 -0.17758709 0.18971175 -0.47619587 0.032392442 0.10819483
0.3436255 0.0842132 0.07075268 0.24119693 -0.32734376 -0.3527614 0.335998 -0.43005848
0.3813172 -0.2417447 -0.27338135 0.09246993 0.45645452 -0.34154165 0.3485279 0.084759
-0.4375019 -0.18141764 -0.10257828 0.16978347 -0.33830547 0.32826 -0.49818724 -0.28174162
0.40963632 -0.32917464 -0.1574645 -0.24197352 -0.40452284 -0.107658446 -0.37662005 -0.3265218
0.019779146 0.1345272 0.17146379 -0.38991922 -0.1682921 0.43654197 -0.25386798 -0.46745187
00000000: 7ce0 393e 7897 69be b859 a7be 50e2 e3bd
00000010: 1042 7e3d b01d 1e3e e6fa fdbe f09a 2a3e
00000020: 801b eebb 08da 99bd 9826 3abe d015 473e
00000030: 0474 c4be 92e5 91be 7072 c4bd d8db 6bbe
00000040: 2249 cf3e 743d b3be 8095 6a3d f605 c2be
00000050: 583a dd3d 2cc4 513e 5c38 a53e 34f0 663e
00000060: a0bd b4bd 2887 ec3e 7416 e8be 5027 b5bd
00000070: 66aa aebe 004f cdbc ea3c c7be 783f ba3d
00000080: b48a 6e3e 4826 893e 5eeb 86be 5206 80be
00000090: f455 c8be 184f febe c851 87bd ec26 5abe
000000a0: f008 553e 78ed f83e aae5 ec3e e06d 44bd
000000b0: 7816 2cbe a809 33be 029e f03e 4038 6ebe
000000c0: 58e9 c23d 3e10 c8be a6bd b7be b841 65be
000000d0: 42fe 8c3e f813 0e3e 2c12 8d3e 6249 f3be
000000e0: b005 49bd 7078 cabe d69d e9be 2824 793e
000000f0: bc1e 863e 2201 913e c0a1 b23e e068 de3d
00000100: 66f1 91be 8cd8 673e b85b a73d 8a51 f2be
00000110: 6c72 f43e c437 533e 205b bcbe ec94 753e
00000120: 6a71 ed3e c27c dcbe bccb 5f3e 60da e1bc
00000130: 40a2 fd3e f05e 3d3e 44a1 023e 0aa0 b33e
00000140: a8a1 dfbe 4412 27be bcfc 2dbe 80a8 3d3c
00000150: 20df 453d c4cd d83e 8e33 f13e 20ae f8be
00000160: 7eb4 f5be 5080 dabd 00b7 b9be a087 4dbe
00000170: e038 bdbe 68e0 1fbe 8c51 8d3e b4d7 f6be
00000180: a0ce 853d c4cf 75be c2be 86be 74f0 77be
00000190: 542d b4be 80a6 f8bc e2b7 c4be 00a3 b53d
000001a0: 9e4c 82be a088 9f3e ecde 8abe 3861 8d3e
000001b0: 9805 1e3e 54a8 253e 50d9 6abd 10cf 103d
000001c0: 227b e83e 2697 e43e a835 c9bd 48f0 c8bd
000001d0: 2014 95be 625a e5be 5cda 2e3e a085 683d
000001e0: 0078 cd3d 9862 ae3d 7271 cd3e 0873 09be
000001f0: 8eb2 b33e 7e37 aebe 3ea1 a43e 14b9 79be
00000200: 506c c63e 34aa 01be 5025 67be 587c 24be
00000210: b0fa 453d c8bb 87bd 24ee 16be 8028 3c3e
00000220: 26c2 b63e 804f 0ebe 46ae a3be 00fd 7b3b
00000230: fc75 78be 88c8 e23e 5ac7 8c3e 4859 c4be
00000240: 6422 1e3e 48d2 ebbe decd d5be 1cd5 fbbe
00000250: 50ee eb3e c8d6 e53e 503b 053e 9a70 92be
00000260: dc5b 573e ac3a c93e 5ca7 613e d8c0 be3e
00000270: 5092 e9be 7eea ed3e fe13 d33e 002e 6dbb
00000280: 20cd a63d f856 b93d 0808 84bd c866 82be
00000290: 08ed 043e 0662 afbe 88a9 6ebe fcc2 723e
000002a0: 78a7 7b3e ce5e e93e 36c1 cb3e 4817 f73e
000002b0: 8cc8 aa3e 2a26 b83e 38a6 9fbe 30f1 ffbe
000002c0: 383f d7be c407 afbe f229 843e 088e b8bd
000002d0: 00a0 4139 c45e 0abe 1c7f ffbe a078 a73c
000002e0: 00f3 cbbd ecec 3b3e 20cf f8be 80e9 62be
000002f0: 3494 c03e 002e 603b 404b 173d b403 da3e
00000300: d0aa cfbd 780c 87be a05a e3be c0b0 66be
00000310: 2cf4 733e 5634 bfbe ca59 cfbe 8ed7 acbe
00000320: 28b3 9f3e 9c09 f5be 54f9 1abe 3a23 a6be
00000330: 886d e7bd b481 6c3e c86d 28be a8e6 bc3d
00000340: fc3e 31be 2096 ddbc 4c25 193e 64d9 35be
00000350: cc43 423e f2cf f3be f0ad 043d 4095 dd3d
00000360: aeef af3e f877 ac3d c8e6 903d 54fc 763e
00000370: 9a99 a7be 249d b4be ee07 ac3e a030 dcbe
00000380: 023c c33e ec8b 77be a4f8 8bbe e060 bd3d
00000390: 68b4 e93e 8cde aebe 4072 b23e 2096 ad3d
000003a0: 4000 e0be 8cc5 39be 9014 d2bd b8db 2d3e
000003b0: 6036 adbe b211 a83e 6612 ffbe 7040 90be
000003c0: dabb d13e 9489 a8be 603e 21be e8c7 77be
000003d0: 9e1d cfbe 087c dcbd 58d4 c0be de2d a7be
000003e0: e007 a23c 80c1 093e 3494 2f3e 7ea3 c7be
000003f0: c454 2cbe 6e82 df3e fcfa 81be da55 efbe

bias f4 [256]
0.113179326 -0.36319757 -0.46719337 0.40114105 -0.37679446 0.21810794 0.39301658 0.11211461
0.18092316 0.100994945 -0.21536398 -0.185372 0.25022906 -0.43822032 -0.011848569 -0.21820742
-0.2346412 -0.39113367 0.44575334 -0.1887151 0.0061237216 -0.3242408 -0.196774 -0.3519398
0.1238727 0.42704213 0.3078922 -0.2529602 -0.42909187 0.38855958 -0.021992207 0.24143589
0.079877794 -0.43826544 -0.33996022 0.2969811 0.21433151 0.4482031 -0.14814615 0.26373792
0.48629314 -0.21194667 0.22879022 0.36046892 0.32651222 -0.3338517 -0.25093544 -0.010873377
-0.029221117 -0.4981253 0.35402507 0.2788161 0.20698202 0.17218482 0.19098341 -0.37557715
-0.29904723 -0.28835613 0.056466997 -0.45932722 -0.4812566 -0.19900542 -0.41767573 -0.38221788
-0.3536361 -0.34290653 -0.4098779 -0.090920985 -0.48072165 -0.0392133 -0.4819097 -0.2092883
0.019024074 -0.2485627 -0.2780552 0.3335061 0.32474697 -0.35941643 -0.17240709 -0.35677058
0.061847925 -0.26773834 -0.24918997 -0.35222465 0.45625293 -0.048504412 -0.09649187 -0.19772732
-0.43121576 -0.27197665 -0.20918357 0.37965244 0.054614365 -0.22814333 -0.49860215 0.48636222
-0.055250525 0.19158399 0.2161138 -0.41940022 -0.14471382 -0.23571497 0.30141026 -0.27121764
-0.39494085 0.24496806 0.04810518 0.2898352 0.21766263 0.19836378 0.31543148 0.10935056
-0.47849286 0.21665454 -0.13369602 0.0048481226 0.43407255 0.066419125 -0.19500244 -0.30229735
-0.2978106 -0.28959775 0.42266834 -0.19093627 0.23285562 -0.2631067 0.284043 0.024625659
-0.11965847 -0.1227296 -0.12521613 0.4936759 0.028621852 -0.47452062 0.027202487 0.4162433
-0.3256486 0.10076928 0.3313486 0.15017962 -0.48784631 -0.206267 -0.0030322075 -0.059390962
-0.2970959 -0.25532573 -0.45277822 0.037279785 0.15921926 0.26860088 -0.4130078 0.436042
-0.2984134 0.42899305 0.26985294 -0.4206344 -0.4395051 0.06755936 0.41133928 0.40626478
-0.23005962 -0.03156185 -0.2896226 -0.46445256 0.037919283 0.3190813 0.36961615 -0.4157881
-0.1636107 -0.14515305 0.16445464 -0.46856952 -0.0018999577 0.42753816 -0.09010017 -0.40848225
-0.44532776 -0.13110691 0.03236562 -0.13751191 -0.16418809 0.4978652 -0.4681151 -0.04771447
-0.38534462 0.24727052 0.35921592 0.21056288 0.1947555 -0.41413748 0.0037119985 -0.41867244
0.1736077 0.2659639 -0.053566575 0.09630811 0.13501072 -0.034990728 0.028959095 0.23748165
0.4312017 0.3944205 0.39244747 0.3463608 -0.19089293 -0.26143527 0.36619633 0.1527201
0.12524498 0.47777325 -0.027658582 0.48738402 0.07962614 0.33362323 -0.21077341 0.13634044
-0.26158994 0.32385552 -0.10576248 0.45508808 0.10257232 0.25006795 -0.21648133 -0.11386728
0.4750601 -0.17323565 -0.42407614 0.30738407 0.0660668 0.124168456 0.4899056 -0.4192503
-0.07132107 -0.30646014 -0.43798113 -0.29677433 -0.10409933 -0.25721675 0.044692755 -0.1325385
0.30210263 -0.2545501 0.36918324 0.12600249 0.03513074 -0.3208782 -0.48914802 -0.025270104
0.2852556 0.4222662 -0.17223543 -0.036562204 0.34787214 -0.29831898 -0.12839109 0.02740717
00000000: 90ca e73d 08f5 b9be f833 efbe 5c62 cd3e
00000010: 34eb c0be b057 5f3e 7839 c93e 589c e53d
00000020: ec43 393e 70d6 ce3d 6088 5cbe 28d2 3dbe
00000030: 061e 803e 6a5e e0be 8020 42bc c471 5fbe
00000040: c845 70be ac42 c8be c839 e43e 883e 41be
00000050: 80a9 c83b e402 a6be 207f 49be 7431 b4be
00000060: f8b0 fd3d 44a5 da3e 0ca4 9d3e 0084 81be
00000070: eeb1 dbbe 48f1 c63e 0029 b4bc f83a 773e
00000080: f896 a33d 5464 e0be 440f aebe e80d 983e
00000090: b879 5b3e e07a e53e a0b3 17be a808 873e
000000a0: 6afb f83e 8c08 59be fc47 6a3e 628f b83e
000000b0: 9c2c a73e 9cee aabe 9c7a 80be 4026 32bc
000000c0: 2061 efbc 480a ffbe c642 b53e fcc0 8e3e
000000d0: 18f3 533e 3851 303e 2891 433e a64b c0be
000000e0: b81c 99be 6aa3 93be f049 673d f02c ebbe
000000f0: 4467 f6be 14c8 4bbe 98d9 d5be 10b2 c3be
00000100: ca0f b5be 7291 afbe 84db d1be c834 babd
00000110: 2621 f6be 209e 20bd debc f6be ac4f 56be
00000120: 60d8 9b3c 3887 7ebe 405d 8ebe 50c1 aa3e
00000130: 3c45 a63e 6e05 b8be 7c8b 30be a2aa b6be
00000140: 4054 7d3d 0015 89be a82b 7fbe ca56 b4be
00000150: fc99 e93e 90ac 46bd 889d c5bd 0879 4abe
00000160: 50c8 dcbe 8640 8bbe 3834 56be ce61 c23e
00000170: 50b3 5f3d 689e 69be c848 ffbe 7804 f93e
00000180: 604e 62bd 982e 443e f04c 5d3e a0bb d6be
00000190: dc2f 14be 445f 71be 7252 9a3e 0add 8abe
000001a0: b035 cabe e8d8 7a3e f009 453d 4865 943e
000001b0: f4e2 5e3e e01f 4b3e 3c80 a13e 30f3 df3d
000001c0: 04fd f4be b0da 5d3e 9ce7 08be 00dd 9e3b
000001d0: c23e de3e c006 883d b8ae 47be b8c6 9abe
000001e0: a27a 98be 2846 94be fc67 d83e cc84 43be
000001f0: b471 6e3e ecb5 86be 166e 913e c0bb c93c
00000200: 800f f5bd a859 fbbd a838 00be 16c3 fc3e
00000210: 6078 ea3c 5ef4 f2be c0d7 de3c d81d d53e
00000220: 6abb a6be 2060 ce3d 86a6 a93e b0c8 193e
00000230: fec6 f9be a837 53be 00b8 46bb f043 73bd
00000240: f41c 98be 0eba 82be 8cd2 e7be b0b2 183d
00000250: 600a 233e 0e86 893e c275 d3be e640 df3e
00000260: a4c9 98be faa4 db3e 2a2a 8a3e 645d d7be
00000270: d006 e1be 905c 8a3d 109b d23e f001 d03e
00000280: c094 6bbe 0047 01bd 6a49 94be bacc edbe
00000290: 4051 1b3d a05e a33e 543e bd3e 2ee2 d4be
000002a0: 9089 27be 00a3 14be cc66 283e 58e8 efbe
000002b0: 0008 f9ba 48e6 da3e 7086 b8bd 9624 d1be
000002c0: 0002 e4be e440 06be d091 043d eccf 0cbe
000002d0: ec20 28be 30e8 fe3e c8ac efbe 4070 43bd
000002e0: e44b c5be 7c34 7d3e 26eb b73e cc9d 573e
000002f0: fc6d 473e d409 d4be 0045 733b 3c5c d6be
00000300: 38c6 313e 6c2c 883e a068 5bbd 303d c53d
00000310: 4040 0a3e 7052 0fbd a03b ed3c 642e 733e
00000320: 78c6 dc3e 7cf1 c93e e0ee c83e 3456 b13e
00000330: 7079 43be d8da 85be 167e bb3e a862 1c3e
00000340: 3840 003e b29e f43e 4094 e2bc 668a f93e
00000350: 0813 a33d aad0 aa3e fcd4 57be d49c 0b3e
00000360: 1eef 85be 64d0 a53e 009a d8bd 4e01 e93e
00000370: 7011 d23d e808 803e 48ad 5dbe 4033 e9bd
00000380: 143b f33e b064 31be 8220 d9be 7261 9d3e
00000390: 084e 873d 084c fe3d e8d4 fa3e faa7 d6be
000003a0: c810 92bd 58e8 9cbe 103f e0be cef2 97be
000003b0: 0832 d5bd eab1 83be c00f 373d 2cb8 07be
000003c0: 32ad 9a3e 6454 82be 9605 bd3e cc06 013e
000003d0: 40e5 0f3d 264a a4be 9c71 fabe 4003 cfbc
000003e0: 060d 923e 4633 d83e 7c5e 30be 40c2 15bd
000003f0: 4c1c b23e 44bd 98be f478 03be 0085 e03c

weight f4 [2, 256]
0.041534074 0.056343675 0.038926467 -0.013308831 -0.05109396 -0.038767017 0.04949198 0.045105137
0.0031896904 -0.05392185 -0.0057735667 -0.04309527 -0.048863977 -0.047269404 0.03298109 0.029631242
0.018688977 -0.009014986 0.018352933 -0.05505261 0.0065931305 -0.042413026 -0.009380229 -0.054230973
0.02842711 0.03205186 -0.036657035 -0.05624876 -0.059388503 0.00837291 0.049794428 -0.05159586
0.0367015 0.050930105 -0.061105743 0.031545393 0.031823575 0.05213514 0.036038935 -0.00651253
0.026445791 -0.036000147 -0.0049093068 -0.01029107 0.032161407 0.030698247 -0.015593573 0.01984641
0.0008074045 0.011214405 0.015915543 -0.0016024411 -0.047699764 -0.010585174 -0.029878937 0.044426262
0.033323474 0.017219238 -0.058600977 0.043765336 -0.05701229 -0.030310154 0.043068647 0.0011412129
-0.049098007 0.032104306 -0.03281731 -0.02135244 -0.025525928 0.02443453 0.029448465 -0.044227436
0.04586286 -0.044507436 -0.051663473 0.052954607 0.06216015 -0.035559565 0.0032431483 0.05981581
0.013678692 0.05245386 -0.036483653 0.05667541 0.013114758 -0.018512927 0.026803643 0.004043415
0.03835497 0.026635349 -0.00597246 -0.0423226 -0.018041857 0.0057488605 -0.0073364824 -0.011852875
-0.048677176 -0.06198644 0.0547508 0.01954355 -0.024167962 -0.029677644 -0.0071833655 0.024936832
0.01846756 0.031611487 -0.017187618 0.01694595 -0.010548793 0.04422117 0.04031051 -0.018723816
0.032234065 -0.021203496 0.039325118 0.038096175 0.039568402 0.0077729225 0.022292659 -0.05612553
-0.026395254 0.003039971 -0.028982334 -0.017238602 0.060696624 0.041736208 0.04622946 0.0103747025
-0.03795173 0.05082038 0.050425246 0.035949588 0.054877244 0.028903723 -0.03425046 0.05856117
0.05301252 -0.051944286 0.0046222582 0.052717224 -0.029048488 0.0019569919 0.047031 0.012255646
0.031891994 0.018285453 0.00985159 0.059504367 -0.05832067 -0.05672268 -0.043346606 0.04340674
-0.03263902 -0.009297349 -0.047659867 0.010469034 -0.015322097 0.021991856 0.018902525 -0.040511712
-0.026916675 -0.02003324 0.035290428 0.046968214 -0.0091294795 0.043646336 0.038321562 -0.033313774
-0.04393352 0.029019974 0.01642926 0.0030856878 0.0054081753 0.055330448 0.03294105 0.02442418
-0.050246425 -0.020081446 -0.023139492 0.036504112 -0.05032763 0.013313457 -0.046786316 -0.047247976
-0.04113031 -0.024189927 0.0012661964 -0.014303356 0.018331066 0.004825771 0.015841596 -0.04638391
0.0389802 -0.02492185 -0.03950558 0.020608999 -0.05702725 -0.0013085306 -0.047427274 -0.061758503
0.050994456 0.0456056 0.056028888 -0.057390057 -0.0179919 -0.030394316 -0.026543543 -0.03515148
-0.033104554 -0.04932061 -0.016260676 0.040939935 -0.021083087 -0.05663141 0.0044803247 0.057051495
-0.00040445477 -0.037302464 -0.04122723 0.026071563 0.0011187494 -0.057164364 0.030361302 -0.0062262267
-0.0077347085 -0.0127385855 0.010814659 0.026695654 0.044986613 0.019089676 0.024190761 0.04566776
-0.0022804886 0.051097192 0.0005025044 -0.001698494 0.005542405 0.020578444 0.052309863 -0.015060671
0.021497019 -0.052692883 -0.039840132 0.013631567 -0.009790868 -0.008025669 -0.047304064 0.03084822
0.05351142 0.029042505 0.025465712 0.011326283 0.056420036 0.034740105 -0.037993193 0.005007647
00000000: a21f 2a3d a0c8 663d 5c71 1f3d 480d 5abc
00000010: e647 51bd 2aca 1ebd 1ab8 4a3d 2ac0 383d
00000020: 200a 513b 28dd 5cbd 3030 bdbb aa84 30bd
00000030: 9825 48bd 909d 41bd 2e17 073d 38bd f23c
00000040: a019 993c 98b3 13bc e458 963c d87e 61bd
00000050: 300b d83b 48b9 2dbd 88af 19bc 4c21 5ebd
00000060: f8df e83c d048 033d b025 16bd 1a65 66bd
00000070: 5c41 73bd 882e 093c 3ef5 4b3d 2e56 53bd
00000080: 5054 163d 169c 503d 044a 7abd be35 013d
00000090: 7059 023d a88b 553d 909d 133d 1067 d5bb
000000a0: d8a4 d83c e474 13bd 40de a0bb e09b 28bc
000000b0: aebb 033d e47a fb3c 307c 7fbc f094 a23c
000000c0: 00a8 533a a0bc 373c 5061 823c 0009 d2ba
000000d0: d460 43bd 706d 2dbc acc4 f4bc 50f8 353d
000000e0: 327e 083d 5c0f 8d3c 9407 70bd 4843 333d
000000f0: b885 69bd 004d f8bc c068 303d c094 953a
00000100: fe1a 49bd ce7f 033d 726b 06bd 50eb aebc
00000110: c01b d1bc ec2a c83c e83d f13c d427 35bd
00000120: b2da 3b3d 6e4d 36bd 149d 53bd eee6 583d
00000130: a49b 7e3d e8a6 11bd 008b 543b 6c01 753d
00000140: 981c 603c dcd9 563d e26f 15bd 7a24 683d
00000150: 48df 563c 6ca8 97bc 5093 db3c a07e 843b
00000160: 1a1a 1d3d 6032 da3c a0b4 c3bb 765a 2dbd
00000170: 84cc 93bc f060 bc3b e066 f0bb 9032 42bc
00000180: b861 47bd 7ee5 7dbd 6042 603d cc19 a03c
00000190: e4fb c5bc 881e f3bc 7062 ebbb 5448 cc3c
000001a0: 4849 973c 0c7b 013d 0ccd 8cbc 3cd2 8a3c
000001b0: d8d4 2cbc 4221 353d a21c 253d b062 99bc
000001c0: de07 043d f4b2 adbc 6013 213d bc0a 1c3d
000001d0: 7a12 223d 00b4 fe3b 189f b63c e2e3 65bd
000001e0: dc3a d8bc 403a 473b 5c6c edbc f837 8dbc
000001f0: 069d 783d 96f3 2a3d 1a5b 3d3d a8fa 293c
00000200: 4673 1bbd 0829 503d b48a 4e3d e03f 133d
00000210: f6c6 603d 80c7 ec3c 364a 0cbd d6dd 6f3d
00000220: a823 593d 88c3 54bd 5076 973b 04ee 573d
00000230: 18f7 edbc e040 003b 94a3 403d e8cb 483c
00000240: 2ea1 023d 60cb 953c 9068 213c daba 733d
00000250: a8e1 6ebd 0a56 68bd 368c 31bd 44cb 313d
00000260: 7eb0 05bd e853 18bc fe36 43bd 5086 2b3c
00000270: 8809 7bbc 4428 b43c 78d9 9a3c 9cef 25bd
00000280: 5c80 dcbc c01c a4bc b28c 103d be61 403d
00000290: d093 15bc 80c6 323d 12f7 1c3d 0674 08bd
000002a0: a2f3 33bd 4cbb ed3c a896 863c 4039 4a3b
000002b0: 1037 b13b 2ea2 623d 32ed 063d 3815 c83c
000002c0: 32cf 4dbd d881 a4bc 088f bdbc 5685 153d
000002d0: 5824 4ebd b020 5a3c 02a3 3fbd 1887 41bd
000002e0: 4278 28bd f429 c6bc 80f6 a53a a058 6abc
000002f0: 082b 963c 8021 9e3b 3cc6 813c 0efd 3dbd
00000300: b4a9 1f3d e828 ccbc 9ad0 21bd 34d4 a83c
00000310: 6895 69bd 0083 abba 1a43 42bd 7cf6 7cbd
00000320: 90df 503d f0cc 3a3d 8c7e 653d d611 6bbd
00000330: c063 93bc 80fd f8bc d871 d9bc 00fb 0fbd
00000340: a498 07bd 6804 4abd 1c35 85bc a2b0 273d
00000350: 70b6 acbc 56f6 67bd b0cf 923b d4ae 693d
00000360: 000d d4b9 78ca 18bd e2dd 28bd 0894 d53c
00000370: 00a3 923a 2e25 6abd 44b8 f83c 6005 ccbb
00000380: 7073 fdbb 80b5 50bc f82f 313c d8b0 da3c
00000390: e243 383d f461 9c3c b42b c63c 1e0e 3b3d
000003a0: 4074 15bb 4a4b 513d 80ba 033a 00a0 deba
000003b0: 109d b53b 2094 a83c de42 563d 08c1 76bc
000003c0: 841a b03c 7ed4 57bd 682f 23bd f056 5f3c
000003d0: e069 20bc 187e 03bc e8c1 41bd 68b5 fc3c
000003e0: ca2e 5b3d 8cea ed3c 789d d03c e091 393c
000003f0: b218 673d a44b 0e3d c09e 1bbd 3017 a43b

bias f4 [2]
0.037949562 -0.03466677
00000000: 0071 1b3d befe 0dbd
